…
 number&#34;&gt;10&lt;/span&gt;&lt;span class=&#34;token punctuation&#34;&gt;)&lt;/span&gt;&lt;span class=&#34;token punctuation&#34;&gt;)&lt;/span&gt;&lt;/pre&gt;&lt;/td&gt;&lt;/tr&gt;&lt;tr&gt;&lt;td data-num=&#34;14&#34;&gt;&lt;/td&gt;&lt;td&gt;&lt;pre&gt;&lt;span class=&#34;token keyword&#34;&gt;print&lt;/span&gt;&lt;span class=&#34;token punctuation&#34;&gt;(&lt;/span&gt;vgg16_true&lt;span class=&#34;token punctuation&#34;&gt;)&lt;/span&gt;&lt;/pre&gt;&lt;/td&gt;&lt;/tr&gt;&lt;/table&gt;&lt;/figure&gt;&lt;p&gt;源：&lt;/p&gt;
&lt;blockquote&gt;
&lt;p&gt;(classifier): Sequential(&lt;br&gt;
(0): Linear(in_features=25088, out_features=4096, bias=True)&lt;br&gt;
(1): ReLU(inplace=True)&lt;br&gt;
(2): Dropout(p=0.5, inplace=False)&lt;br&gt;
(3): Linear(in_features=4096, out_features=4096, bias=True)&lt;br&gt;
(4): ReLU(inplace=True)&lt;br&gt;
(5): Dropout(p=0.5, inplace=False)&lt;br&gt;
(6): Linear(in_features=4096, out_features=1000, bias=True)&lt;br&gt;
)&lt;/p&gt;
&lt;/blockquote&gt;
&lt;p&gt;现：&lt;/p&gt;
&lt;blockquote&gt;
&lt;p&gt;(classifier): Sequential(&lt;br&gt;
(0): Linear(in_features=25088, out_features=4096, bias=True)&lt;br&gt;
(1): ReLU(inplace=True)&lt;br&gt;
(2): Dropout(p=0.5, inplace=False)&lt;br&gt;
(3): Linear(in_features=4096, out_features=4096, bias=True)&lt;br&gt;
(4): ReLU(inplace=True)&lt;br&gt;
(5): Dropout(p=0.5, inplace=False)&lt;br&gt;
(6): Linear(in_features=4096, out_features=1000, bias=True)&lt;br&gt;
(add_linear): Linear(in_features=1000, out_features=10, bias=True)&lt;br&gt;
)&lt;/p&gt;
&lt;/blockquote&gt;
&lt;p&gt;在现有 vgg16 中修改层&lt;/p&gt;
&lt;figure class=&#34;highlight python&#34;&gt;&lt;figcaption data-lang=&#34;python&#34;&gt;&lt;/figcaption&gt;&lt;table&gt;&lt;tr&gt;&lt;td data-num=&#34;1&#34;&gt;&lt;/td&gt;&lt;td&gt;&lt;pre&gt;&lt;span class=&#34;token keyword&#34;&gt;import&lt;/span&gt; os&lt;/pre&gt;&lt;/
…
en operator&#34;&gt;=&lt;/span&gt;&lt;span class=&#34;token number&#34;&gt;10&lt;/span&gt;&lt;span class=&#34;token punctuation&#34;&gt;)&lt;/span&gt;&lt;/pre&gt;&lt;/td&gt;&lt;/tr&gt;&lt;tr&gt;&lt;td data-num=&#34;13&#34;&gt;&lt;/td&gt;&lt;td&gt;&lt;pre&gt;&lt;span class=&#34;token keyword&#34;&gt;print&lt;/span&gt;&lt;span class=&#34;token punctuation&#34;&gt;(&lt;/span&gt;vgg16_false&lt;span class=&#34;token punctuation&#34;&gt;)&lt;/span&gt;&lt;/pre&gt;&lt;/td&gt;&lt;/tr&gt;&lt;/table&gt;&lt;/figure&gt;&lt;p&gt;源：&lt;/p&gt;
&lt;blockquote&gt;
&lt;p&gt;(classifier): Sequential(&lt;br&gt;
(0): Linear(in_features=25088, out_features=4096, bias=True)&lt;br&gt;
(1): ReLU(inplace=True)&lt;br&gt;
(2): Dropout(p=0.5, inplace=False)&lt;br&gt;
(3): Linear(in_features=4096, out_features=4096, bias=True)&lt;br&gt;
(4): ReLU(inplace=True)&lt;br&gt;
(5): Dropout(p=0.5, inplace=False)&lt;br&gt;
(6): Linear(in_features=4096, out_features=1000, bias=True)&lt;br&gt;
)&lt;/p&gt;
&lt;/blockquote&gt;
&lt;p&gt;现：&lt;/p&gt;
&lt;blockquote&gt;
&lt;p&gt;(classifier): Sequential(&lt;br&gt;
(0): Linear(in_features=25088, out_features=4096, bias=True)&lt;br&gt;
(1): ReLU(inplace=True)&lt;br&gt;
(2): Dropout(p=0.5, inplace=False)&lt;br&gt;
(3): Linear(in_features=4096, out_features=4096, bias=True)&lt;br&gt;
(4): ReLU(inplace=True)&lt;br&gt;
(5): Dropout(p=0.5, inplace=False)&lt;br&gt;
(6): Linear(in_features=4096, out_features=10, bias=True)&lt;br&gt;
)&lt;/p&gt;
&lt;/blockquote&gt;
&lt;h2 id=&#34;模型的保存与加载&#34;&gt;&lt;a class=&#34;markdownIt-Anchor&#34; href=&#34;#模型的保存与加载&#34;&gt;#&lt;/a&gt; 模型的保存与加载&lt;/h2&gt;
&lt;p&gt;保存：&lt;/p&gt;
&lt;figure class=&#34;highlight python&#34;&gt;&lt;figcaption data-lang=&#34;python&#34;&gt;&lt;/figcaption&gt;&lt;table&gt;&lt;tr&gt;&lt;td data-num=&#34;1&
…
