…
tuation\">,</span> nn<span class=\"token punctuation\">.</span>Linear<span class=\"token punctuation\">(</span><span class=\"token number\">1000</span><span class=\"token punctuation\">,</span> <span class=\"token number\">10</span><span class=\"token punctuation\">)</span><span class=\"token punctuation\">)</span></pre></td></tr><tr><td data-num=\"14\"></td><td><pre><span class=\"token keyword\">print</span><span class=\"token punctuation\">(</span>vgg16_true<span class=\"token punctuation\">)</span></pre></td></tr></table></figure><p>源：</p>\n<blockquote>\n<p>(classifier): Sequential(<br>\n(0): Linear(in_features=25088, out_features=4096, bias=True)<br>\n(1): ReLU(inplace=True)<br>\n(2): Dropout(p=0.5, inplace=False)<br>\n(3): Linear(in_features=4096, out_features=4096, bias=True)<br>\n(4): ReLU(inplace=True)<br>\n(5): Dropout(p=0.5, inplace=False)<br>\n(6): Linear(in_features=4096, out_features=1000, bias=True)<br>\n)</p>\n</blockquote>\n<p>现：</p>\n<blockquote>\n<p>(classifier): Sequential(<br>\n(0): Linear(in_features=25088, out_features=4096, bias=True)<br>\n(1): ReLU(inplace=True)<br>\n(2): Dropout(p=0.5, inplace=False)<br>\n(3): Linear(in_features=4096, out_features=4096, bias=True)<br>\n(4): ReLU(inplace=True)<br>\n(5): Dropout(p=0.5, inplace=False)<br>\n(6): Linear(in_features=4096, out_features=1000, bias=True)<br>\n(add_linear): Linear(in_features=1000, out_features=10, bias=True)<br>\n)</p>\n</blockquote>\n<p>在现有 vgg16 中修改层</p>\n<figure class=\"highlight python\"><figcaption data-lang=\"python\"></figcaption><table><tr><td data-num=\"1\"></td><td><pre><span class=\"token keyword\">import</span> os</pre></td></tr><tr><td data-num=\"2\"></td><td><pre></pre></td></tr><tr><td data-num=\"3\"></td><td><pre><span class=\"token keyword
…
an>Linear<span class=\"token punctuation\">(</span>in_features<span class=\"token operator\">=</span><span class=\"token number\">4096</span><span class=\"token punctuation\">,</span> out_features<span class=\"token operator\">=</span><span class=\"token number\">10</span><span class=\"token punctuation\">)</span></pre></td></tr><tr><td data-num=\"13\"></td><td><pre><span class=\"token keyword\">print</span><span class=\"token punctuation\">(</span>vgg16_false<span class=\"token punctuation\">)</span></pre></td></tr></table></figure><p>源：</p>\n<blockquote>\n<p>(classifier): Sequential(<br>\n(0): Linear(in_features=25088, out_features=4096, bias=True)<br>\n(1): ReLU(inplace=True)<br>\n(2): Dropout(p=0.5, inplace=False)<br>\n(3): Linear(in_features=4096, out_features=4096, bias=True)<br>\n(4): ReLU(inplace=True)<br>\n(5): Dropout(p=0.5, inplace=False)<br>\n(6): Linear(in_features=4096, out_features=1000, bias=True)<br>\n)</p>\n</blockquote>\n<p>现：</p>\n<blockquote>\n<p>(classifier): Sequential(<br>\n(0): Linear(in_features=25088, out_features=4096, bias=True)<br>\n(1): ReLU(inplace=True)<br>\n(2): Dropout(p=0.5, inplace=False)<br>\n(3): Linear(in_features=4096, out_features=4096, bias=True)<br>\n(4): ReLU(inplace=True)<br>\n(5): Dropout(p=0.5, inplace=False)<br>\n(6): Linear(in_features=4096, out_features=10, bias=True)<br>\n)</p>\n</blockquote>\n<h2 id=\"模型的保存与加载\"><a class=\"markdownIt-Anchor\" href=\"#模型的保存与加载\">#</a> 模型的保存与加载</h2>\n<p>保存：</p>\n<figure class=\"highlight python\"><figcaption data-lang=\"python\"></figcaption><table><tr><td data-num=\"1\"></td><td><pre><span class=\"token keyword\">import</span> os</pre></td></tr><tr><td data-num=\"2\"></td><td><pre>
…
