…
ƒæˆæœ¬ï¼Œæé«˜æ•ˆæœã€‚\nåœ¨ç°æœ‰ vgg16 ä¸­åŠ ä¸€äº›æ–°çš„å±‚\nimport osimport torchvision.datasetsfrom torch import nnos.environ[\"TORCH_HOME\"] = \"E:/PyCharmCode/pytorchSTU/data\"vgg16_false = torchvision.models.vgg16(pretrained=False)vgg16_true = torchvision.models.vgg16(pretrained=True)print(vgg16_true)train_data = torchvision.datasets.CIFAR10(root=\"data\", train=True, transform=torchvision.transforms.ToTensor(),                                          download=True)vgg16_true.classifier.add_module(\"add_linear\", nn.Linear(1000, 10))print(vgg16_true)æºï¼š\n\n(classifier): Sequential(\n(0): Linear(in_features=25088, out_features=4096, bias=True)\n(1): ReLU(inplace=True)\n(2): Dropout(p=0.5, inplace=False)\n(3): Linear(in_features=4096, out_features=4096, bias=True)\n(4): ReLU(inplace=True)\n(5): Dropout(p=0.5, inplace=False)\n(6): Linear(in_features=4096, out_features=1000, bias=True)\n)\n\nç°ï¼š\n\n(classifier): Sequential(\n(0): Linear(in_features=25088, out_features=4096, bias=True)\n(1): ReLU(inplace=True)\n(2): Dropout(p=0.5, inplace=False)\n(3): Linear(in_features=4096, out_features=4096, bias=True)\n(4): ReLU(inplace=True)\n(5): Dropout(p=0.5, inplace=False)\n(6): Linear(in_features=4096, out_features=1000, bias=True)\n(add_linear): Linear(in_features=1000, out_features=10, bias=True)\n)\n\nåœ¨ç°æœ‰ vgg16 ä¸­ä¿®æ”¹å±‚\nimport osimport torchvision.datasetsfrom torch import nn# train_data = torchvision.datasets.ImageNet(root=\"data\", split=\"train\", download=True,#                                            transform=torchvision.transforms.ToTensor())os.environ[\"TORCH_HOME\"] = \"E:/PyCharmCode/pytorchSTU/data\"vgg16_false = torchvision.models.vgg16(pretrained=False)vgg16_true = torchvision.models.vgg16(pretrained=True)print(vgg16_false)vgg16_false.classifier[6] = nn.Linear(in_features=4096, out_features=10)print(vgg16_false)æºï¼š\n\n(classifier): Sequential(\n(0): Linear(in_features=25088, out_features=4096, bias=True)\n(1): ReLU(inplace=True)\n(2): Dropout(p=0.5, inplace=False)\n(3): Linear(in_features=4096, out_features=4096, bias=True)\n(4): ReLU(inplace=True)\n(5): Dropout(p=0.5, inplace=False)\n(6): Linear(in_features=4096, out_features=1000, bias=True)\n)\n\nç°ï¼š\n\n(classifier): Sequential(\n(0): Linear(in_features=25088, out_features=4096, bias=True)\n(1): ReLU(inplace=True)\n(2): Dropout(p=0.5, inplace=False)\n(3): Linear(in_features=4096, out_features=4096, bias=True)\n(4): ReLU(inplace=True)\n(5): Dropout(p=0.5, inplace=False)\n(6): Linear(in_features=4096, out_features=10, bias=True)\n)\n\n# æ¨¡å‹çš„ä¿å­˜ä¸åŠ è½½\nä¿å­˜ï¼š\nimport osimport torchimport torchvision.modelsfrom torch import nnos.environ[\"TORCH_HOME\"] = \"E:/PyCharmCode/pytorchSTU/data\"vgg16 = torchvision.models.vgg16(pretrained=False)# æ–¹å¼ 1ï¼šä¿å­˜æ¨¡å‹ç»“æ„ + å‚æ•°torch.save(vgg16, \"vgg16_method1.pth\")# æ–¹å¼ 2ï¼šä¿å­˜æ¨¡å‹å‚æ•° (å®˜æ–¹æ¨è)torch.save(vgg16.sta
…
