…
使用与修改（迁移学习）\n借用别人训练好的模型知识，在新任务上减少训练成本，提高效果。\n在现有 vgg16 中加一些新的层\nimport osimport torchvision.datasetsfrom torch import nnos.environ[\"TORCH_HOME\"] = \"E:/PyCharmCode/pytorchSTU/data\"vgg16_false = torchvision.models.vgg16(pretrained=False)vgg16_true = torchvision.models.vgg16(pretrained=True)print(vgg16_true)train_data = torchvision.datasets.CIFAR10(root=\"data\", train=True, transform=torchvision.transforms.ToTensor(),                                          download=True)vgg16_true.classifier.add_module(\"add_linear\", nn.Linear(1000, 10))print(vgg16_true)源：\n\n(classifier): Sequential(\n(0): Linear(in_features=25088, out_features=4096, bias=True)\n(1): ReLU(inplace=True)\n(2): Dropout(p=0.5, inplace=False)\n(3): Linear(in_features=4096, out_features=4096, bias=True)\n(4): ReLU(inplace=True)\n(5): Dropout(p=0.5, inplace=False)\n(6): Linear(in_features=4096, out_features=1000, bias=True)\n)\n\n现：\n\n(classifier): Sequential(\n(0): Linear(in_features=25088, out_features=4096, bias=True)\n(1): ReLU(inplace=True)\n(2): Dropout(p=0.5, inplace=False)\n(3): Linear(in_features=4096, out_features=4096, bias=True)\n(4): ReLU(inplace=True)\n(5): Dropout(p=0.5, inplace=False)\n(6): Linear(in_features=4096, out_features=1000, bias=True)\n(add_linear): Linear(in_features=1000, out_features=10, bias=True)\n)\n\n在现有 vgg16 中修改层\nimport osimport torchvision.datasetsfrom torch import nn# train_data = torchvision.datasets.ImageNet(root=\"data\", split=\"train\", download=True,#                                            transform=torchvision.transforms.ToTensor())os.environ[\"TORCH_HOME\"] = \"E:/PyCharmCode/pytorchSTU/data\"vgg16_false = torchvision.models.vgg16(pretrained=False)vgg16_true = torchvision.models.vgg16(pretrained=True)print(vgg16_false)vgg16_false.classifier[6] = nn.Linear(in_features=4096, out_features=10)print(vgg16_false)源：\n\n(classifier): Sequential(\n(0): Linear(in_features=25088, out_features=4096, bias=True)\n(1): ReLU(inplace=True)\n(2): Dropout(p=0.5, inplace=False)\n(3): Linear(in_features=4096, out_features=4096, bias=True)\n(4): ReLU(inplace=True)\n(5): Dropout(p=0.5, inplace=False)\n(6): Linear(in_features=4096, out_features=1000, bias=True)\n)\n\n现：\n\n(classifier): Sequential(\n(0): Linear(in_features=25088, out_features=4096, bias=True)\n(1): ReLU(inplace=True)\n(2): Dropout(p=0.5, inplace=False)\n(3): Linear(in_features=4096, out_features=4096, bias=True)\n(4): ReLU(inplace=True)\n(5): Dropout(p=0.5, inplace=False)\n(6): Linear(in_features=4096, out_features=10, bias=True)\n)\n\n# 模型的保存与加载\n保存：\nimport osimport torchimport torchvision.modelsfrom torch import nnos.environ[\"TORCH_HOME\"] = \"E:/PyCharmCode/pytorchSTU/data\"vgg16 = torchvision.models.vgg16(pretrained=False)# 方式 1：保存模型结构 + 参数torch.save(vgg16, \"vgg16_method1.pth\")# 方式 2：保存模型参数 (官方推荐)torch.save(vgg16.state_dict(), \"vgg16_method2.pth\")# 陷阱 1class Net(nn.Mo
…
