…
\nimport os\n\nimport torchvision.datasets\nfrom torch import nn\n\nos.environ[&quot;TORCH_HOME&quot;] = &quot;E:/PyCharmCode/pytorchSTU/data&quot;\nvgg16_false = torchvision.models.vgg16(pretrained=False)\nvgg16_true = torchvision.models.vgg16(pretrained=True)\nprint(vgg16_true)\n\ntrain_data = torchvision.datasets.CIFAR10(root=&quot;data&quot;, train=True, transform=torchvision.transforms.ToTensor(),\n                                          download=True)\nvgg16_true.classifier.add_module(&quot;add_linear&quot;, nn.Linear(1000, 10))\nprint(vgg16_true)\n\n源：\n\n(classifier): Sequential(\n(0): Linear(in_features=25088, out_features=4096, bias=True)\n(1): ReLU(inplace=True)\n(2): Dropout(p=0.5, inplace=False)\n(3): Linear(in_features=4096, out_features=4096, bias=True)\n(4): ReLU(inplace=True)\n(5): Dropout(p=0.5, inplace=False)\n(6): Linear(in_features=4096, out_features=1000, bias=True)\n)\n\n现：\n\n(classifier): Sequential(\n(0): Linear(in_features=25088, out_features=4096, bias=True)\n(1): ReLU(inplace=True)\n(2): Dropout(p=0.5, inplace=False)\n(3): Linear(in_features=4096, out_features=4096, bias=True)\n(4): ReLU(inplace=True)\n(5): Dropout(p=0.5, inplace=False)\n(6): Linear(in_features=4096, out_features=1000, bias=True)\n(add_linear): Linear(in_features=1000, out_features=10, bias=True)\n)\n\n在现有vgg16中修改层\nimport os\n\nimport torchvision.datasets\nfrom torch import nn\n\n# train_data = torchvision.datasets.ImageNet(root=&quot;data&quot;, split=&quot;train&quot;, download=True,\n#                                            transform=torchvision.transforms.ToTensor())\nos.environ[&quot;TORCH_HOME&quot;] = &quot;E:/PyCharmCode/pytorchSTU/data&quot;\nvgg16_false = torchvision.models.vgg16(pretrained=False)\nvgg16_true = torchvision.models.vgg16(pretrained=True)\nprint(vgg16_false)\nvgg16_false.classifier[6] = nn.Linear(in_features=4096, out_features=10)\nprint(vgg16_false)\n\n源：\n\n(classifier): Sequential(\n(0): Linear(in_features=25088, out_features=4096, bias=True)\n(1): ReLU(inplace=True)\n(2): Dropout(p=0.5, inplace=False)\n(3): Linear(in_features=4096, out_features=4096, bias=True)\n(4): ReLU(inplace=True)\n(5): Dropout(p=0.5, inplace=False)\n(6): Linear(in_features=4096, out_features=1000, bias=True)\n)\n\n现：\n\n(classifier): Sequential(\n(0): Linear(in_features=25088, out_features=4096, bias=True)\n(1): ReLU(inplace=True)\n(2): Dropout(p=0.5, inplace=False)\n(3): Linear(in_features=4096, out_features=4096, bias=True)\n(4): ReLU(inplace=True)\n(5): Dropout(p=0.5, inplace=False)\n(6): Linear(in_features=4096, out_features=10, bias=True)\n)\n\n 模型的保存与加载\n保存：\nimport os\n\nimport torch\nimport torchvision.models\nfrom torch import nn\n\nos.environ[&quot;TORCH_HOME&quot;] = &quot;E:/PyCharmCode/pytorchSTU/data&quot;\nvgg16 = torchvision.models.vgg16(pretrained=False)\n# 方式1：保存模型结构+参数\ntorch.save(vgg16, &quot;vgg16_method1.pth&quot;)\n# 方式2：保存模型参数(官方推荐)\ntorch.save(vgg16.state_dict(), &qu
…
