…
以及各种工程方法，以便用在未来的学术和工程之中，顺便熟悉 Visio 的使用方法，让我们开始吧。\n# 快速开始\n从仓库克隆：\ngit clone https://github.com/ultralytics/yolov5.git安装环境，推荐 python3.9，torch2.5.1，pytorch-cuda11.8：\nconda install -c pytorch -c nvidia -c conda-forge pytorch torchvision pytorch-cuda=11.8 ultralytics自动检查：\nimport torchimport utilsdisplay = utils.notebook_init()  # checks预测：\npython detect.py --weights yolov5s.pt --img 1000 --conf 0.25 --source 0其余验证、训练和可视化可在 tutorial.ipynb 中查看。\n# 看看模型\n运行 yolo.py 得到如下结果：\nfrom  n    params  module                                  arguments                       0                -1  1      3520  models.common.Conv                      [3, 32, 6, 2, 2]                1                -1  1     18560  models.common.Conv                      [32, 64, 3, 2]                  2                -1  1     18816  models.common.C3                        [64, 64, 1]                     3                -1  1     73984  models.common.Conv                      [64, 128, 3, 2]                 4                -1  2    115712  models.common.C3                        [128, 128, 2]                   5                -1  1    295424  models.common.Conv                      [128, 256, 3, 2]                6                -1  3    625152  models.common.C3                        [256, 256, 3]                   7                -1  1   1180672  models.common.Conv                      [256, 512, 3, 2]                8                -1  1   1182720  models.common.C3                        [512, 512, 1]                   9                -1  1    656896  models.common.SPPF                      [512, 512, 5]                  10                -1  1    131584  models.common.Conv                      [512, 256, 1, 1]               11                -1  1         0  torch.nn.modules.upsampling.Upsample    [None, 2, 'nearest']           12           [-1, 6]  1         0  models.common.Concat                    [1]                            13                -1  1    361984  models.common.C3                        [512, 256, 1, False]           14                -1  1     33024  models.common.Conv                      [256, 128, 1, 1]               15                -1  1         0  torch.nn.modules.upsampling.Upsample    [None, 2, 'nearest']           16           [-1, 4]  1         0  models.common.Concat                    [1]                            17                -1  1     90880  models.common.C3                        [256, 128, 1, False]           18                -1  1    147712  models.common.Conv                      [128, 128, 3, 2]               19          [-1, 14]  1         0  models.common.Concat                    [1]                            20                -1  1    296448  models.common.C3                        [256, 256, 1, False]           21                -1  1    590336  models.common.Conv                      [256, 256, 3, 2]               22          [-1, 10]  1         0  models.common.Concat                    [1]                            23                -1  1   1182720  models.common.C3                        [512, 512, 1, False]           24      [17, 20, 23]  1    229245  Detect                                  [80, [[10, 13, 16, 30, 33, 23], [30, 61, 62, 45, 59, 119], [116, 90, 156, 198, 373, 326]], [128, 256, 512]]YOLOv5s summary: 214 layers, 7235389 parameters, 7235389 gradientsFusing layers... YOLOv5s summary: 157 layers, 7225885 parameters, 7225885 gradients首先观察到 YOLOv5s summary 输出一次之后又输出了一次，提示： 
…
比较” 中找到。****\n\n# 原文\n【YOLOv7: Trainable bag-of-freebies sets new state-of-the-art for real-time object detectors】：https://arxiv.org/abs/2207.02696\n# 克隆源码并安装\ngit clone https://github.com/WongKinYiu/yolov7cd yolov7pip install -r requirements.txt# 检测\n修改两处直接运行：\nparser.add_argument('--source', type=str, default='0', help='source')  # file/folder, 0 for webcamparser.add_argument('--img-size', type=int, default=320, help='inference size (pixels)')# 看看模型\n以下基于 yolov7.yaml\nfrom  n    params  module                                  arguments                       0                -1  1       928  models.common.Conv                      [3, 32, 3, 1]                   1                -1  1     18560  models.common.Conv                      [32, 64, 3, 2]                  2                -1  1     36992  models.common.Conv                      [64, 64, 3, 1]                  3                -1  1     73984  models.common.Conv                      [64, 128, 3, 2]                 4                -1  1      8320  models.common.Conv                      [128, 64, 1, 1]                 5                -2  1      8320  models.common.Conv                      [128, 64, 1, 1]                 6                -1  1     36992  models.common.Conv                      [64, 64, 3, 1]                  7                -1  1     36992  models.common.Conv                      [64, 64, 3, 1]                  8                -1  1     36992  models.common.Conv                      [64, 64, 3, 1]                  9                -1  1     36992  models.common.Conv                      [64, 64, 3, 1]                 10  [-1, -3, -5, -6]  1         0  models.common.Concat                    [1]                            11                -1  1     66048  models.common.Conv                      [256, 256, 1, 1]               12                -1  1         0  models.common.MP                        []                             13                -1  1     33024  models.common.Conv                      [256, 128, 1, 1]               14                -3  1     33024  models.common.Conv                      [256, 128, 1, 1]               15                -1  1    147712  models.common.Conv                      [128, 128, 3, 2]               16          [-1, -3]  1         0  models.common.Concat                    [1]                            17                -1  1     33024  models.common.Conv                      [256, 128, 1, 1]               18                -2  1     33024  models.common.Conv                      [256, 128, 1, 1]               19                -1  1    147712  models.common.Conv                      [128, 128, 3, 1]               20                -1  1    147712  models.common.Conv                      [128, 128, 3, 1]               21                -1  1    147712  models.common.Conv                      [128, 128, 3, 1]               22                -1  1    147712  models.common.Conv                      [128, 128, 3, 1]               23  [-1, -3, -5, -6]  1         0  models.common.Concat                    [1]                            24                -1  1    263168  models.common.Conv                      [512, 512, 1, 1]               25                -1  1         0  models.common.MP                        []                             26                -1  1    131584  models.common.Conv                      [512, 256, 1, 1]               27                -3  1    131584  models.common.Conv                      [512, 256, 1, 1]               28                -1  1    590336  models.common.Conv                      [256, 256, 3, 2]               29          [-1, -3]  1         0  models.common.Concat                    [1]                            30                -1  1    131584  models.common.Conv                      [512, 256, 1, 1]               31                -2  1    131584  models.common.Conv                      [512, 256, 1, 1]               32                -1  1    590336  models.common.Conv                      [256, 256, 3, 1]               33                -1  1    590336  models.common.Conv                      [256, 256, 3, 1]               34                -1  1    590336  models.common.Conv                      [256, 256, 3, 1]               35                -1  1    590336  models.common.Conv                      [256, 256, 3, 1]               36  [-1, -3, -5, -6]  1         0  models.common.Concat                    [1]                            37                -1  1   1050624  models.common.Conv                      [1024, 1024, 1, 1]             38                -1  1         0  models.common.MP                        []                             39                -1  1    525312  models.common.Conv                      [1024, 512, 1, 1]              40                -3  1    525312  models.common.Conv                      [1024, 512, 1, 1]              41                -1  1   2360320  models.common.Conv                      [512, 512, 3, 2]               42          [-1, -3]  1         0  models.common.Concat                    [1]                            43                -1  1    262656  models.common.Conv                      [1024, 256, 1, 1]              44                -2  1    262656  models.common.Conv                      [1024, 256, 1, 1]              45                -1  1    590336  models.common.Conv                      [256, 256, 3, 1]               46                -1  1    590336  models.common.Conv                      [256, 256, 3, 1]               47                -1  1    590336  models.common.Conv                      [256, 256, 3, 1]               48                -1  1    590336  models.common.Conv                      [256, 256, 3, 1]               49  [-1, -3, -5, -6]  1         0  models.common.Concat                    [1]                            50                -1  1   1050624  models.common.Conv                      [1024, 1024, 1, 1]             51                -1  1   7609344  models.common.SPPCSPC                   [1024, 512, 1]                 52                -1  1    131584  models.common.Conv                      [512, 256, 1, 1]               53                -1  1         0  torch.nn.modules.upsampling.Upsample    [None, 2, 'nearest']           54                37  1    262656  models.common.Conv                      [1024, 256, 1, 1]              55          [-1, -2]  1         0  models.common.Concat                    [1]                            56                -1  1    131584  models.common.Conv                      [512, 256, 1, 1]               57                -2  1    131584  models.common.Conv                      [512, 256, 1, 1]               58                -1  1    295168  models.common.Conv                      [256, 128, 3, 1]               59                -1  1    147712  models.common.Conv                      [128, 128, 3, 1]               60                -1  1    147712  models.common.Conv                      [128, 128, 3, 1]               61                -1  1    147712  models.common.Conv                      [128, 128, 3, 1]               62[-1, -2, -3, -4, -5, -6]  1         0  models.common.Concat                    [1]                            63                -1  1    262656  models.common.Conv                      [1024, 256, 1, 1]              64                -1  1     33024  models.common.Conv                      [256, 128, 1, 1]               65                -1  1         0  torch.nn.modules.upsampling.Upsample    [None, 2, 'nearest']           66                24  1     65792  models.common.Conv                      [512, 128, 1, 1]               67          [-1, -2]  1         0  models.common.Concat                    [1]                            68                -1  1     33024  models.common.Conv                      [256, 128, 1, 1]               69                -2  1     33024  models.common.Conv                      [256, 128, 1, 1]               70                -1  1     73856  models.common.Conv                      [128, 64, 3, 1]                71                -1  1     36992  models.common.Conv                      [64, 64, 3, 1]                 72                -1  1     36992  models.common.Conv                      [64, 64, 3, 1]                 73                -1  1     36992  models.common.Conv                      [64, 64, 3, 1]                 74[-1, -2, -3, -4, -5, -6]  1         0  models.common.Concat                    [1]                            75                -1  1     65792  models.common.Conv                      [512, 128, 1, 1]               76                -1  1         0  models.common.MP                        []                             77                -1  1     16640  models.common.Conv                      [128, 128, 1, 1]               78                -3  1     16640  models.common.Conv                      [128, 128, 1, 1]               79                -1  1    147712  models.common.Conv                      [128, 128, 3, 2]               80      [-1, -3, 63]  1         0  models.common.Concat                    [1]                            81                -1  1    131584  models.common.Conv                      [512, 256, 1, 1]               82                -2  1    131584  models.common.Conv                      [512, 256, 1, 1]               83                -1  1    295168  models.common.Conv                      [256, 128, 3, 1]               84                -1  1    147712  models.common.Conv                      [128, 128, 3, 1]               85                -1  1    147712  models.common.Conv                      [128, 128, 3, 1]               86                -1  1    147712  models.common.Conv                      [128, 128, 3, 1]               87[-1, -2, -3, -4, -5, -6]  1         0  models.common.Concat                    [1]                            88                -1  1    262656  models.common.Conv                      [1024, 256, 1, 1]              89                -1  1         0  models.common.MP                        []                             90                -1  1     66048  models.common.Conv                      [256, 256, 1, 1]               91                -3  1     66048  models.common.Conv                      [256, 256, 1, 1]               92                -1  1    590336  models.common.Conv                      [256, 256, 3, 2]               93      [-1, -3, 51]  1         0  models.common.Concat                    [1]                            94                -1  1    525312  models.common.Conv                      [1024, 512, 1, 1]              95                -2  1    525312  models.common.Conv                      [1024, 512, 1, 1]              96                -1  1   1180160  models.common.Conv                      [512, 256, 3, 1]               97                -1  1    590336  models.common.Conv                      [256, 256, 3, 1]               98                -1  1    590336  models.common.Conv                      [256, 256, 3, 1]               99                -1  1    590336  models.common.Conv                      [256, 256, 3, 1]              100[-1, -2, -3, -4, -5, -6]  1         0  models.common.Concat                    [1]                           101                -1  1   1049600  models.common.Conv                      [2048, 512, 1, 1]             102                75  1    328704  models.common.RepConv                   [128, 256, 3, 1]              103                88  1   1312768  models.common.RepConv                   [256, 512, 3, 1]              104               101  1   5246976  models.common.RepConv                   [512, 1024, 3, 1]             105   [102, 103, 104]  1    460282  IDetect                                 [80, [[12, 16, 19, 36, 40, 28], [36, 75, 76, 55, 72, 146], [142, 110, 192, 243, 459, 401]], [256, 512, 1024]]# parametersnc: 80  # number of classesdepth_multiple: 1.0  # model depth multiplewidth_multiple: 1.0  # layer channel multiple# anchorsanchors:  - [12,16, 19,36, 40,28]  # P3/8  - [36,7
…
